{"modelTopology": {"keras_version": "2.1.5", "backend": "tensorflow", "model_config": {"class_name": "Sequential", "config": [{"class_name": "Conv2D", "config": {"dilation_rate": [1, 1], "kernel_regularizer": null, "batch_input_shape": [null, 32, 32, 1], "trainable": true, "bias_regularizer": null, "data_format": "channels_last", "filters": 32, "kernel_initializer": {"class_name": "VarianceScaling", "config": {"distribution": "uniform", "scale": 1.0, "mode": "fan_avg", "seed": null}}, "kernel_size": [3, 3], "use_bias": true, "dtype": "float32", "bias_initializer": {"class_name": "Zeros", "config": {}}, "name": "conv2d_1", "bias_constraint": null, "kernel_constraint": null, "strides": [1, 1], "activation": "relu", "padding": "valid", "activity_regularizer": null}}, {"class_name": "Conv2D", "config": {"dilation_rate": [1, 1], "activity_regularizer": null, "kernel_regularizer": null, "kernel_size": [3, 3], "padding": "valid", "bias_regularizer": null, "data_format": "channels_last", "filters": 32, "kernel_initializer": {"class_name": "VarianceScaling", "config": {"distribution": "uniform", "scale": 1.0, "mode": "fan_avg", "seed": null}}, "use_bias": true, "bias_initializer": {"class_name": "Zeros", "config": {}}, "name": "conv2d_2", "bias_constraint": null, "kernel_constraint": null, "strides": [1, 1], "activation": "relu", "trainable": true}}, {"class_name": "MaxPooling2D", "config": {"padding": "valid", "name": "max_pooling2d_1", "data_format": "channels_last", "trainable": true, "pool_size": [2, 2], "strides": [2, 2]}}, {"class_name": "Dropout", "config": {"rate": 0.25, "noise_shape": null, "trainable": true, "seed": null, "name": "dropout_1"}}, {"class_name": "Flatten", "config": {"trainable": true, "name": "flatten_1"}}, {"class_name": "Dense", "config": {"units": 128, "kernel_regularizer": null, "bias_initializer": {"class_name": "Zeros", "config": {}}, "trainable": true, "bias_regularizer": null, "activation": "relu", "kernel_initializer": {"class_name": "VarianceScaling", "config": {"distribution": "uniform", "scale": 1.0, "mode": "fan_avg", "seed": null}}, "use_bias": true, "name": "dense_1", "bias_constraint": null, "kernel_constraint": null, "activity_regularizer": null}}, {"class_name": "Dropout", "config": {"rate": 0.5, "noise_shape": null, "trainable": true, "seed": null, "name": "dropout_2"}}, {"class_name": "Dense", "config": {"units": 2, "kernel_regularizer": null, "bias_initializer": {"class_name": "Zeros", "config": {}}, "trainable": true, "bias_regularizer": null, "activation": "softmax", "kernel_initializer": {"class_name": "VarianceScaling", "config": {"distribution": "uniform", "scale": 1.0, "mode": "fan_avg", "seed": null}}, "use_bias": true, "name": "dense_2", "bias_constraint": null, "kernel_constraint": null, "activity_regularizer": null}}]}, "training_config": {"loss_weights": null, "loss": "categorical_crossentropy", "metrics": ["accuracy"], "optimizer_config": {"class_name": "Adam", "config": {"decay": 0.0, "lr": 0.0010000000474974513, "beta_1": 0.8999999761581421, "epsilon": 1e-07, "beta_2": 0.9990000128746033, "amsgrad": false}}, "sample_weight_mode": null}}, "weightsManifest": [{"paths": ["group1-shard1of1"], "weights": [{"name": "conv2d_1/kernel", "shape": [3, 3, 1, 32], "dtype": "float32"}, {"name": "conv2d_1/bias", "shape": [32], "dtype": "float32"}]}, {"paths": ["group2-shard1of1"], "weights": [{"name": "conv2d_2/kernel", "shape": [3, 3, 32, 32], "dtype": "float32"}, {"name": "conv2d_2/bias", "shape": [32], "dtype": "float32"}]}, {"paths": ["group3-shard1of1"], "weights": [{"name": "dense_1/kernel", "shape": [6272, 128], "dtype": "float32"}, {"name": "dense_1/bias", "shape": [128], "dtype": "float32"}]}, {"paths": ["group4-shard1of1"], "weights": [{"name": "dense_2/kernel", "shape": [128, 2], "dtype": "float32"}, {"name": "dense_2/bias", "shape": [2], "dtype": "float32"}]}]}